modelo_cnn_ligero.pth (torch, 999833 bytes, 8 tensors)

conv.0.weight f4 [16, 3, 3, 3]
0	0x3e40332c	0.1876952
1	0xbe1e68d2	-0.15469673
2	0xbda4fdfd	-0.08056257
3	0xbdc616d3	-0.09672322
4	0xbc2356b9	-0.009969407
5	0x3cc64b66	0.024205875
6	0xbe3365e2	-0.17519334
7	0x3e1fe506	0.1561471
8	0xbdfcdf34	-0.1234726
9	0x3e5e25c5	0.21694095
10	0x3dfd1531	0.123575576
11	0x3dde8a98	0.108662784
12	0x3e220415	0.1582187
13	0x3cabc1ab	0.020966372
14	0x3e214048	0.15747178
15	0xbad28ea7	-0.0016064242
16	0xbe26730e	-0.16254827
17	0xbe3d3dd8	-0.18480623
18	0x3d3a129c	0.045427904
19	0x3ddd523c	0.108067006
20	0x3cdc32f0	0.026879758
21	0x3c8de0f3	0.017319178
22	0x3d4a5c8c	0.049404666
23	0xbd84728e	-0.06467162
24	0x3da300d4	0.07959142
25	0x3ddd66df	0.10810637
26	0x3e14e822	0.14541677
27	0x399052b2	0.00027527433
28	0xbe2ff9b1	-0.17185093
29	0x3dd429d2	0.10359539
30	0xbccd8e23	-0.02509219
31	0x3dfa0719	0.12208385
32	0xbcfe8ecc	-0.03107395
33	0x3c905d65	0.017622659
34	0x3dda3f04	0.106565505
35	0xbe546ed2	-0.207454
36	0xbe6691cd	-0.22516556
37	0xbe51f170	-0.20502257
38	0xbd19b180	-0.037522793
39	0xbcda09bb	-0.026615968
40	0xbe43e0e4	-0.19128758
41	0x3d2c8f27	0.04212871
42	0xbd0715ad	-0.032979656
43	0x3e1fe148	0.15613282
44	0x3db94e44	0.09048131
45	0xbe4ccfa2	-0.2000108
46	0x3dc0669b	0.093945704
47	0x3deffa13	0.1171762
48	0xbd3e70a4	-0.04649414
49	0xbe377dbc	-0.17919058
50	0x3dd52743	0.10407879
51	0x3debdacf	0.11516344
52	0xbe4bac7e	-0.1989002
53	0x3db37595	0.08762661
54	0x3e4df6f6	0.2011374
55	0xbde216b4	-0.110394865
56	0x3e054cb3	0.1301754
57	0x3e11be74	0.14232808
58	0xbe2f420a	-0.17115036
59	0xbe1dd47a	-0.15413085
60	0xbcc578f7	-0.024105532
61	0xbdc67df5	-0.09691993
62	0x3e2170bf	0.15765665
63	0xbce90d14	-0.028448619
64	0x3d34cd3f	0.04414105
65	0xbe55969e	-0.20858237
66	0x3d73b0a0	0.059494615
67	0xbe51c29f	-0.20484398
68	0x3cded9ea	0.027203519
69	0xbdba88ff	-0.09108161
70	0xbdfa3f2f	-0.122190826
71	0xbcea36a0	-0.0285905
72	0x3d893ba2	0.06700827
73	0x3d6738a6	0.05645051
74	0xbe1fe1c6	-0.1561347
75	0x3db29c8d	0.08721266
76	0x3e1b85c3	0.15187745
77	0xbcc148f8	-0.023594365
78	0x3ceae43b	0.028673282
79	0x3e114dfa	0.14189902
80	0xbe055971	-0.130224
81	0xbe3b3574	-0.1828211
82	0x3a17981c	0.0005782859
83	0xbe058754	-0.13039905
84	0xbe0d448b	-0.13795678
85	0xbe6ea41f	-0.23304795
86	0xbe46dd6d	-0.19420405
87	0x3d7d72a3	0.061876904
88	0xbdafb517	-0.08579462
89	0x3e1f0c3f	0.15532015
90	0x3ddbe7d0	0.10737574
91	0x3e04c4ca	0.12965694
92	0xbdc7b1b8	-0.09750694
93	0x3e05a5c8	0.13051522
94	0x3e07a6e7	0.13247262
95	0xbdf0adda	-0.117519096
96	0xbdf62cdd	-0.12020276
97	0xbe139c9f	-0.14415215
98	0xbcc22d97	-0.02370338
99	0xbe2812fb	-0.1641349
100	0xbd423a9b	-0.04741917
101	0x3dbe043b	0.09278151
102	0xbc73ed3b	-0.014888103
103	0xbe4c526e	-0.1995332
104	0x3d33a6f9	0.04386041
105	0x3dbc1df7	0.09185403
106	0xbcdf504b	-0.027259966
107	0x3cce2fc4	0.02516926
108	0xbe12c6b4	-0.14333612
109	0x3de396f1	0.11112774
110	0xbcae8c80	-0.02130723
111	0xbe348867	-0.17630158
112	0xbd03feb6	-0.032225333
113	0x3dd504fd	0.10401342
114	0xbe28254f	-0.16420482
115	0x3c5eca77	0.013598076
116	0x3daa85fd	0.083263375
117	0x3cea3aec	0.02859255
118	0xbc8d0a76	-0.017216902
119	0xbca92b89	-0.020650642
120	0xbd96087e	-0.073258385
121	0x3e32bab1	0.1745403
122	0x3cdd2491	0.026994975
123	0xbe4f4c14	-0.20243865
124	0x3e39abd3	0.18131952
125	0x3caf5ac3	0.021405583
126	0x3d3357dd	0.043784965
127	0x3e31a36b	0.17347495
128	0x3c32a80c	0.010904323
129	0xbd451d52	-0.048123665
130	0x3e330652	0.1748288
131	0x3d1f63a8	0.0389134
132	0xbe3d9f6f	-0.1851785
133	0x3e01461b	0.126244
134	0x3b8d5428	0.0043130107
135	0xbe23a498	-0.15980756
136	0xbdc623bd	-0.09674785
137	0xbe335f9b	-0.1751694
138	0xbdc781ec	-0.097415775
139	0xbc369dd2	-0.011146026
140	0xbe18c385	-0.14918335
141	0xbd9e5cf7	-0.077325754
142	0xbdc4b772	-0.09605302
143	0xbe433af4	-0.19065458
144	0x3dabe4f0	0.08393276
145	0x3d9cd28a	0.07657345
146	0xbd67e8cc	-0.056618497
147	0x3c6ec494	0.014573235
148	0xbd218041	-0.039428953
149	0xbe173e11	-0.1476977
150	0x3d3412a7	0.0439631
151	0xbe1f70f7	-0.15570436
152	0x3e417db5	0.1889561
153	0xbe2282ee	-0.15870258
154	0x3e4cbdfe	0.19994351
155	0x3c2d9a0b	0.010595809
156	0x3dd08cac	0.10183081
157	0x3df7b6e9	0.12095434
158	0x3e139160	0.14410925
159	0x3e458fe1	0.19293167
160	0xbdd17cb5	-0.10228864
161	0x3e1477c9	0.1449882
162	0xbe0175d2	-0.12642601
163	0xbd866c6a	-0.06563647
164	0xbdb04784	-0.086073905
165	0x3dc049ac	0.09389052
166	0x3bcbd315	0.0062202313
167	0xbe15445d	-0.1457686
168	0xbc152494	-0.009102959
169	0x3dafeca1	0.08590055
170	0xbe5eeaef	-0.21769308
171	0x3dcb98cd	0.09941254
172	0x3d344b7a	0.044017293
173	0xbe226e7d	-0.1586246
174	0x3c0f7717	0.008756421
175	0xbe43b2bd	-0.19111152
176	0xbd422c4e	-0.047405533
177	0x3e2d58db	0.16928427
178	0x3dab1dfc	0.083553284
179	0xbdd30c36	-0.103050634
180	0x3de5d917	0.11223047
181	0x3cdba273	0.02681086
182	0xbe4dba82	-0.20090678
183	0x3e3444bb	0.17604344
184	0x3e163c69	0.14671482
185	0xbdea5e89	-0.114438124
186	0x3e0fabed	0.14030428
187	0xbd819085	-0.06326393
188	0xbd9c8365	-0.07642249
189	0xbe45f133	-0.19330291
190	0xbdb4f1e7	-0.08835202
191	0x3e49112d	0.19635458
192	0x3dc4cc0b	0.096092306
193	0x3d060306	0.032717727
194	0x3e0a737d	0.13520618
195	0x3d424959	0.04743323
196	0x3e412405	0.18861397
197	0x3dcf0112	0.10107626
198	0xbe645502	-0.22298053
199	0xbe01cc36	-0.12675557
200	0x3cf4c89e	0.029880818
201	0xbe694425	-0.22779901
202	0xbe0a9802	-0.13534549
203	0xbdaf0157	-0.085451774
204	0xbe132618	-0.1437
205	0xbd4f8f45	-0.05067374
206	0x3e257aee	0.16160175
207	0xbd4cdb81	-0.050014023
208	0xbe62a897	-0.22134624
209	0x3cfd86b5	0.030948022
210	0xbd8216b4	-0.063519865
211	0x3dacb659	0.084332176
212	0x3e32ced7	0.17461716
213	0xbe77c90c	-0.24197787
214	0xbd84ab54	-0.06477991
215	0x3e3040e9	0.17212261
216	0xbe12964d	-0.14315148
217	0xbdfa94e5	-0.12235431
218	0x3d5a1780	0.053245068
219	0x3d08ad90	0.033368647
220	0xbd8f8248	-0.07007271
221	0x3d340274	0.043947652
222	0xba8d932b	-0.0010801306
223	0xbdec05fd	-0.1152458
224	0x3dcc6cd9	0.099816985
225	0x3da5e97b	0.081011735
226	0xbda28788	-0.07936007
227	0xbd503bbf	-0.05083823
228	0x3c820e6b	0.015876016
229	0xbdaf663b	-0.08564421
230	0x3db44613	0.08802428
231	0xbd63e953	-0.055642437
232	0xbc69577b	-0.014242048
233	0x3dde1bfa	0.1084518
234	0xbe49a107	-0.19690333
235	0x3e21f14a	0.158147
236	0xbcd88ad7	-0.026433391
237	0x3dc029e0	0.09382987
238	0x3c6c95c8	0.0144400075
239	0xbe2a9c2f	-0.16661142
240	0x3dd10d8f	0.10207664
241	0x3e059ce9	0.13048138
242	0xbd2120af	-0.03933781
243	0xbe1d976c	-0.15389794
244	0x3d73debf	0.0595386
245	0x3e157bac	0.14597958
246	0x3dcca9ae	0.09993301
247	0x3da5d332	0.08096923
248	0xbd704eca	-0.05866889
249	0xbd1ebd4b	-0.038754743
250	0x3e15d7f3	0.1463316
251	0x3e2e8397	0.17042385
252	0x3e0dc404	0.13844305
253	0x3de27961	0.110583074
254	0x3e5367ef	0.20645116
255	0x3c10950a	0.008824596

conv.0.bias f4 [16]
0	0xbe3c99d9	-0.18418063
1	0x3bc733ab	0.0060791573
2	0xbe307480	-0.17231941
3	0x3e7db5f2	0.24776438
4	0xbcc2a7f9	-0.023761736
5	0xbd2d29a1	-0.04227603
6	0x3dec6cf7	0.11544221
7	0x3e15d659	0.14632548
8	0xbdbfaab4	-0.09358731
9	0xbe55b8cd	-0.20871277
10	0xbcf4edc5	-0.029898534
11	0x3da6daf6	0.08147232
12	0x3d18f8b6	0.037346564
13	0xbe381b08	-0.17979062
14	0x3c5dc4d7	0.0135357
15	0x3ddd773f	0.1081376

conv.3.weight f4 [32, 16, 3, 3]
0	0xbcaaa23b	-0.02082931
1	0x3d036363	0.032077204
2	0xbbace094	-0.0052757952
3	0xbc343cf0	-0.011000857
4	0x3de7d1fe	0.1131935
5	0x3b9e4d24	0.004830973
6	0x3de91e2e	0.113827094
7	0x3e3b9a4a	0.18320575
8	0x3e031ed5	0.1280473
9	0x3d8bb995	0.06822506
10	0xbcacdec7	-0.021102322
11	0x3ba181e3	0.004928814
12	0x3d55f04c	0.052231118
13	0xbd063c65	-0.03277244
14	0xbaef0dfb	-0.001823842
15	0x3da26bfa	0.07930751
16	0xbb917c22	-0.0044398466
17	0xbd4a0df0	-0.049329698
18	0x3daba4b9	0.08381028
19	0xbe2ff46f	-0.17183088
20	0x3dd8bf32	0.105833426
21	0xbe1aca4d	-0.15116234
22	0xbe280737	-0.16409002
23	0xbc47c8af	-0.012193843
24	0xbdc7660a	-0.09736259
25	0xbe0e4b0b	-0.13895814
26	0xbd375fb7	-0.044769015
27	0x3cbe0c13	0.023199117
28	0x3dce7569	0.10080988
29	0xbd10c5f6	-0.03534504
30	0x3d803491	0.06260026
31	0x3d9c1522	0.07621218
32	0x3dead661	0.11466671
33	0x3e0c6932	0.13712004
34	0x3e2bea01	0.16788484
35	0x3dcc7541	0.09983302
36	0x3c8e19a5	0.017346213
37	0x3da25501	0.079263695
38	0x3bf38b89	0.0074324054
39	0x3d4b62e7	0.049654868
40	0xbdb5b9b2	-0.08873309
41	0x3d4dc969	0.050240908
42	0x3d92f443	0.071754955
43	0x3dd887cc	0.10572776
44	0xbb1cef05	-0.0023946178
45	0xbc90b02b	-0.017662128
46	0x3c830c5d	0.015997106
47	0x3dd58eb2	0.104276076
48	0x3e14f09f	0.14544915
49	0x3d827ca9	0.06371433
50	0x3e30a22f	0.17249368
51	0x3d142401	0.03616715
52	0x3e0e38b4	0.13888818
53	0x3e4d4034	0.20044023
54	0x3e36dd82	0.17857936
55	0x3e5b080b	0.21389787
56	0xbd271733	-0.04079361
57	0x3e2e45c0	0.17018795
58	0x3e311058	0.17291391
59	0x3e0584e6	0.13038978
60	0x3e06b6b1	0.13155629
61	0x3d20706d	0.039169718
62	0x3da5e231	0.08099783
63	0x3cb98f13	0.02265123
64	0xbd43c5f3	-0.0477962
65	0x3c68dd61	0.014212937
66	0x3d997dac	0.07494673
67	0x3c8ae08e	0.01695278
68	0x3c4e4645	0.012589996
69	0xbc00e1ea	-0.007866362
70	0xbc9d217b	-0.019181004
71	0x3d4283cd	0.047488976
72	0x3d5a383f	0.053276297
73	0x3d79ba43	0.06096865
74	0xbd22292a	-0.03959004
75	0x3d38d17d	0.04512166
76	0xbc6adc6d	-0.01433478
77	0xbd793781	-0.06084395
78	0x3ce810cf	0.028328327
79	0x3d306c46	0.043072008
80	0x3d93dd2d	0.0721992
81	0x3d9839b9	0.07432885
82	0xbc4bfae8	-0.012449957
83	0xbcff193e	-0.031139966
84	0x3d3cb5aa	0.046071686
85	0xbdd956d5	-0.10612265
86	0x3c4f19ca	0.012640426
87	0x3d3873bc	0.045032248
88	0x3d42f2ef	0.04759496
89	0xbd5806ae	-0.052740745
90	0xbe116b9a	-0.14201203
91	0xbe2698d5	-0.16269238
92	0xbda73db2	-0.08166064
93	0xbd4208dd	-0.047371734
94	0xbd937d36	-0.072016165
95	0x3d2a84f9	0.04163072
96	0x3c238ecb	0.009982775
97	0xbd61d0c8	-0.05513075
98	0x3d85158c	0.0649825
99	0x3c4dcb11	0.012560622
100	0x3df41d74	0.1191968
101	0x3dc1cc2b	0.0946277
102	0x3cced83f	0.025249599
103	0x3da537b9	0.08067269
104	0x3e6167bd	0.2201223
105	0xbdc38ba0	-0.09548116
106	0x3de953a8	0.11392909
107	0x3e08475b	0.1330847
108	0xbb3c6413	-0.0028746172
109	0xbc058180	-0.008148551
110	0xbd08240f	-0.033237513
111	0xbbd89ce4	-0.0066104997
112	0x3de5ff05	0.11230282
113	0x3d294b1c	0.041331396
114	0x3dfaba12	0.12242521
115	0x3d8870c3	0.066621326
116	0x3d5a4885	0.053291816
117	0x3c0c3393	0.008557218
118	0xbdd5d7b3	-0.10441532
119	0xbd4b91a7	-0.04969945
120	0xbc4268e4	-0.011865828
121	0xbdd24691	-0.10267366
122	0xbdc4ac68	-0.096031964
123	0xbd53468d	-0.051580954
124	0xbde1c078	-0.110230386
125	0x3cf58319	0.029969739
126	0x3e2b3539	0.16719522
127	0x3e049183	0.12946133
128	0x3da50c98	0.08059043
129	0x3e20c850	0.15701413
130	0x3cd40ba9	0.025884466
131	0x3dd32254	0.10309282
132	0x3e36a626	0.17836818
133	0x3defbffc	0.1170654
134	0x3d2ba7a7	0.041907933
135	0xbd887065	-0.066620626
136	0xbd914e6d	-0.07095037
137	0xbd9033a3	-0.07041099
138	0x3d02087e	0.03174638
139	0x3d87e35d	0.06635163
140	0xbbfd12cb	-0.0077231876
141	0xbd1e50df	-0.038651343
142	0x3d804a0e	0.06264125
143	0x3d81df02	0.063413635
144	0xbd2a907f	-0.04164171
145	0xbd1837f5	-0.03716274
146	0x3b121c5c	0.0022294736
147	0xbd93accf	-0.07210695
148	0xbd874ae6	-0.066060826
149	0xbcf11596	-0.029429238
150	0x3d52a852	0.051430054
151	0x3cbeb918	0.023281619
152	0xbdce407f	-0.100708954
153	0x3d575069	0.05256692
154	0xbbc0e775	-0.005886967
155	0xbcb334b6	-0.02187572
156	0x3d985a8d	0.07439146
157	0xbd15639e	-0.036471955
158	0x3d8f8bf3	0.07009115
159	0x3d82e78f	0.063918225
160	0x3dc7057d	0.09717844
161	0x3da29d62	0.07940175
162	0x3d4f272f	0.050574478
163	0xbd2c5d40	-0.042081118
164	0xbda87a0a	-0.08226402
165	0xbddc187e	-0.10746859
166	0x3cca258d	0.024676109
167	0x3d38ad28	0.04508701
168	0xbcd37970	-0.025814742
169	0x39cd379a	0.00039142073
170	0xbd66bb5f	-0.056331035
171	0x3bc145e3	0.0058982237
172	0xbe4bfc18	-0.19920385
173	0xbd9b30e7	-0.07577687
174	0xbd971e91	-0.07378877
175	0xbe26df20	-0.16296053
176	0xbdda44c7	-0.106576495
177	0xbdac4bf9	-0.08412928
178	0xbe0c5c67	-0.13707124
179	0xbe0b5a8d	-0.13608761
180	0x3c31cfbe	0.010852752
181	0x3d96e790	0.07368386
182	0x3d970331	0.073736556
183	0x3dc0f282	0.09421255
184	0xbd240c99	-0.040051077
185	0xbc034892	-0.008012908
186	0xbd7dcefa	-0.061964966
187	0xbc830ec1	-0.015998246
188	0xbd8a61b4	-0.06756917
189	0x3df781c4	0.12085298
190	0x3d987ce7	0.07445698
191	0x3c08ffe7	0.008361793
192	0x3d34a177	0.044099297
193	0x3daeb7e2	0.085311666
194	0x3def26ce	0.11677323
195	0x3d82ea83	0.06392386
196	0x3d316498	0.043308824
197	0x3e0d8630	0.1382072
198	0xbde74b52	-0.11293663
199	0xbddeabc2	-0.10872604
200	0xbda6f142	-0.08151485
201	0xbda92e38	-0.08260769
202	0xbe075ff8	-0.13220203
203	0xbdac117b	-0.08401772
204	0xbd966feb	-0.073455654
205	0xbdc8de72	-0.09808053
206	0xbdaf51fa	-0.08560558
207	0xbd2ad0c2	-0.041702993
208	0xbcc58f4e	-0.024116185
209	0xbc9773c6	-0.018487822
210	0x3c7483b5	0.0149239795
211	0x3bb3a23d	0.005481987
212	0xbae25107	-0.001726658
213	0x3d650132	0.055909343
214	0x3c8a5256	0.016884964
215	0x3d9f4836	0.07777445
216	0xbbcc7959	-0.0062400517
217	0xbd60f1cb	-0.05491809
218	0xbce0dddd	-0.027449543
219	0x3ce2a030	0.027664274
220	0xbbd0b0c0	-0.0063687265
221	0xbcfb4db2	-0.030676696
222	0x3d8b8b45	0.06813673
223	0x3ba1898c	0.004929727
224	0xbd187f92	-0.037231036
225	0x3d63f496	0.055653177
226	0xbc2923f8	-0.010323517
227	0x3c864c79	0.016393887
228	0xbd2ea282	-0.04263545
229	0xbd9f239a	-0.07770462
230	0xbd78bb4a	-0.060725488
231	0x3c8749ad	0.016514624
232	0xbc067f42	-0.008209052
233	0xbd84f500	-0.064920425
234	0xbd41a8b2	-0.04728002
235	0xbdc3efd3	-0.09567227
236	0xbd9015d5	-0.07035414
237	0x3d86bddc	0.065791816
238	0x3cec7ca5	0.028868029
239	0xbd5f65e4	-0.05454053
240	0x3d99f3b7	0.07517188
241	0xbd1328d2	-0.0359276
242	0x3d9db03d	0.076996304
243	0x3d1865cd	0.03720646
244	0xbc56f32b	-0.013119499
245	0xbcb261b7	-0.02177511
246	0x3d7a5225	0.061113495
247	0xbd5e58d0	-0.054283917
248	0xbc820570	-0.015871733
249	0xbd23a822	-0.039955266
250	0xbc9756d1	-0.018474014
251	0x3c851a60	0.016247928
252	0x3dd5e0f6	0.104432985
253	0xbbb23b84	-0.0054392237
254	0xbc831acc	-0.016003989
255	0x3d48e0ef	0.04904264

conv.3.bias f4 [32]
0	0xbcffb90e	-0.03121617
1	0x3dc51cba	0.0962462
2	0xbd4eca3b	-0.05048583
3	0xbd8524fb	-0.06501194
4	0x3d50497b	0.050851326
5	0x3bc4e9f8	0.0060093366
6	0x3dbeb1ea	0.09311278
7	0x3d5d5098	0.05403194
8	0xbd00c8be	-0.031441443
9	0xbd363a43	-0.044489156
10	0x3e078398	0.13233793
11	0xbdabfb03	-0.08397486
12	0xbdb4226d	-0.08795629
13	0xbc990358	-0.018678352
14	0xbdb6d314	-0.08926979
15	0xbd9a0471	-0.075203784
16	0xbcece05f	-0.028915582
17	0xbd6955f3	-0.056966733
18	0xbb4c4eb9	-0.0031174852
19	0xbdb868a5	-0.09004334
20	0x3d8f407f	0.069947235
21	0x3c11af8d	0.008891952
22	0xbd55aec3	-0.05216862
23	0xbd2bc780	-0.041938305
24	0x3b0f14a0	0.0021832362
25	0xbd95f862	-0.07322766
26	0xbd124f1d	-0.03571998
27	0xbd81f388	-0.06345278
28	0xbc1730d3	-0.009227949
29	0xbd228539	-0.039677832
30	0xbdb035a6	-0.086039826
31	0x3ded16cb	0.11576613

fc.1.weight f4 [64, 3808]
0	0xbcd78d5c	-0.026312523
1	0xbd96681d	-0.07344077
2	0xbc81540c	-0.015787147
3	0x3d2d5de8	0.042325884
4	0xbd447bd7	-0.047969665
5	0xbd29d4d5	-0.041462738
6	0xbcc67a01	-0.024228098
7	0x3c02d6c2	0.007985773
8	0x3c6d03f7	0.014466277
9	0xbd82fdc2	-0.06396057
10	0x3d4b9357	0.04970106
11	0x3d7ecbc7	0.062206056
12	0x3cc83a38	0.024441823
13	0x3b191c25	0.0023362723
14	0x3d11ab02	0.035563476
15	0x3dad2fc9	0.0845638
16	0xbd3d1f8a	-0.046172656
17	0x3d04d66f	0.032431062
18	0x3c8c74b4	0.017145492
19	0x3d0c6d42	0.034283884
20	0x3cef205f	0.02919024
21	0x3ccfce09	0.0253668
22	0x3d7fd0a1	0.062454823
23	0x3c5f1989	0.013616928
24	0x3cc9e859	0.024646925
25	0xb8b1b3bc	-8.473496e-05
26	0x3c78aed1	0.015178398
27	0x3c6382e8	0.013886191
28	0x3d02a6a1	0.03189719
29	0x3d592b5a	0.05301986
30	0x3c9fa735	0.01948891
31	0x3d35c9df	0.044381972
32	0xbc2c1f80	-0.010505557
33	0x3d63e2b8	0.055636138
34	0x3d3a50f2	0.04548735
35	0x3d16778c	0.036735103
36	0x3d3b4a41	0.04572511
37	0x3c5815f3	0.013188827
38	0x3d542d0f	0.051800784
39	0x3d324ba2	0.04352916
40	0x3db44c5c	0.08803627
41	0x3dcc3589	0.099711485
42	0x3d0e1865	0.034691233
43	0x3d453889	0.04814962
44	0x3d78dc8b	0.0607572
45	0x3dbe5ca8	0.092950165
46	0x3e1c2036	0.15246662
47	0x3df21a56	0.118214294
48	0x3dd6037f	0.104498856
49	0x3cd376b5	0.02581344
50	0x3c6610d0	0.014042094
51	0x3da3deaf	0.08001458
52	0x3dff4e4c	0.12466106
53	0x3e18279e	0.14858863
54	0x3dd8ff53	0.10595574
55	0x3da5b002	0.080902115
56	0xbc83a5a9	-0.016070204
57	0xb9ea00af	-0.00044632467
58	0x3df12a11	0.11775602
59	0x3e001eb8	0.12511718
60	0x3e0910b8	0.13385284
61	0x3dbcc8a0	0.09217954
62	0x3d51335a	0.051074363
63	0xbd32a187	-0.043611076
64	0x3af589f3	0.0018733129
65	0x3df6b5fe	0.12046431
66	0x3de1bf71	0.11022843
67	0x3e2ffee3	0.17187075
68	0x3da29724	0.07938984
69	0x3c0b3c20	0.008498222
70	0xbd4561cb	-0.048188966
71	0xbbd51ffc	-0.006504057
72	0x3db0b05b	0.08627387
73	0x3d6a86ff	0.05725765
74	0x3dd87ca3	0.105706476
75	0x3cf93132	0.030418966
76	0xbb4b653b	-0.003103568
77	0xbd684400	-0.056705475
78	0x3a3c9a28	0.0007194602
79	0xbc0cee6f	-0.008601769
80	0xbc00e1f6	-0.007866373
81	0x3cf38ab9	0.029729234
82	0x3c9487a3	0.018131083
83	0xbcb9dd70	-0.022688597
84	0xbd2ca93c	-0.042153582
85	0x3cc57e14	0.02410797
86	0xbc0580bc	-0.008148368
87	0xbca4512e	-0.02005824
88	0xbbbe0574	-0.00579899
89	0x3d8ef833	0.06980934
90	0xbcc9dc8b	-0.024641296
91	0xbd2d1bdd	-0.0422629
92	0x3c2ca9c7	0.010538525
93	0x3bc43f25	0.0059889727
94	0xbd315148	-0.043290406
95	0x3c26cad3	0.010180193
96	0x3db5a249	0.08868844
97	0x3c0e0f18	0.008670591
98	0xbc87178a	-0.016490716
99	0xbbc1e56d	-0.0059172423
100	0xbd507a0d	-0.050897647
101	0xbd83522f	-0.0641216
102	0xbd5f0dfd	-0.0544567
103	0x3cc0ed4e	0.023550656
104	0x3cd397ce	0.025829222
105	0xbd2d383c	-0.042289957
106	0xbd8e877e	-0.06959437
107	0xbdf68a7a	-0.12038131
108	0xbdf3a814	-0.11897293
109	0xbde367b1	-0.11103762
110	0xbcf92f8a	-0.030418176
111	0x3b2286e0	0.002479963
112	0xbda1dc2e	-0.07903324
113	0xbdd3e93d	-0.10347221
114	0xbe1ec1e8	-0.15503657
115	0xbdfbd664	-0.12296751
116	0xbe00929d	-0.12555929
117	0xbd8b2c29	-0.06795532
118	0xbcdc662f	-0.026904194
119	0xbc88527a	-0.01664089
120	0xba926071	-0.0011167658
121	0x3c1c78df	0.009550302
122	0x3c6b490b	0.0143606765
123	0x3d45398b	0.04815058
124	0x3cdd580d	0.027019525
125	0xbbe43dd8	-0.00696538
126	0xbd30bac8	-0.04314688
127	0xbc425359	-0.011860692
128	0xbc9ef443	-0.019403582
129	0x3b968b1d	0.0045942203
130	0xbc48c443	-0.012253824
131	0xbd23a04c	-0.039947793
132	0xbd4936a6	-0.049124382
133	0xbc3f2d20	-0.0116684735
134	0x3be4dba6	0.006984192
135	0xbb9ad14b	-0.0047246567
136	0x3c81c64f	0.015841631
137	0x3c884c38	0.016637906
138	0x3c02d7cc	0.00798602
139	0xbd55e9c7	-0.0522249
140	0xbcd6e6a8	-0.026233032
141	0xbc8b5467	-0.01700802
142	0x3a04c059	0.00050640624
143	0x3b678205	0.00353253
144	0x3c5b1a94	0.013373036
145	0x3c803804	0.01565171
146	0xbd50fb10	-0.05102068
147	0xbc69d342	-0.014271559
148	0xbb1aa18b	-0.0023594822
149	0x3b64e8ca	0.0034928792
150	0x3c31c947	0.010851211
151	0x3cc2dae4	0.023786016
152	0xbb9a8dbc	-0.004716603
153	0xbcff316a	-0.031151492
154	0xbc4520a5	-0.012031709
155	0x3c9e0b1b	0.019292405
156	0x3c75d7f6	0.015005102
157	0x3b709ab4	0.0036713304
158	0x3c12cb3e	0.0089595895
159	0x3c89b0d7	0.016807957
160	0xbce6b578	-0.028162703
161	0xbbb9880f	-0.0056619714
162	0x3cc1bf62	0.023650829
163	0x3c4d05e2	0.01251361
164	0x3b9c0b55	0.004762093
165	0x3cdeacf3	0.027182078
166	0x3b859116	0.0040761335
167	0xbc645db0	-0.013938352
168	0xbbc2bfc3	-0.00594327
169	0x3b8d851f	0.004318848
170	0x3c537812	0.012907045
171	0x3c993b1f	0.018704949
172	0x3bb933d2	0.0056519294
173	0x3c80894a	0.015690465
174	0xbd08b205	-0.033372898
175	0x3c889e59	0.016677069
176	0xbbb6ab52	-0.005574622
177	0xbbeba016	-0.0071907146
178	0x3cc6952c	0.024241053
179	0x3bdff26a	0.006834318
180	0x3c5eaea6	0.013591444
181	0xbcb2b007	-0.021812452
182	0x3c1ac318	0.009445928
183	0xbc1d4333	-0.009598541
184	0xbc4b652b	-0.012414257
185	0x3c9150b0	0.01773867
186	0x3c5d3a0e	0.013502611
187	0x3afe3269	0.0019393686
188	0xbd08c02b	-0.03338639
189	0x3cc070eb	0.023491343
190	0x3bdd4be2	0.0067534307
191	0x3b3bc0e8	0.0028648917
192	0x3bb3d436	0.005487944
193	0xbbea5073	-0.0071507036
194	0x3ba08d1b	0.0048996336
195	0xbcb5ee40	-0.022208333
196	0x3b5ac33c	0.003338053
197	0xbc4d34cf	-0.012524798
198	0xbc68fbbf	-0.014220177
199	0x3bc16bcc	0.005902743
200	0xbaa0d371	-0.0012270046
201	0xbb696124	-0.003561088
202	0xbc9d2ef2	-0.019187424
203	0xbc628637	-0.013825945
204	0xbc76d28e	-0.015064849
205	0xbc19b600	-0.009381771
206	0xbc1f31e2	-0.009716483
207	0xbc37e990	-0.011225119
208	0x3b7e172f	0.0038771143
209	0xbd0e8d62	-0.034802802
210	0x3c06c599	0.008225822
211	0xb997f752	-0.00028985232
212	0x3b1d2c6e	0.002398278
213	0xbb638b71	-0.0034720565
214	0x3cbb68d8	0.022877142
215	0x3cae03a0	0.021241963
216	0x3ba63eed	0.0050734193
217	0x3c0144e5	0.007889961
218	0x3bfcbfb4	0.0077132825
219	0x3bfc2317	0.0076946127
220	0xbc0aa1a8	-0.008461393
221	0x3c9c774a	0.01909985
222	0x3cb16d59	0.021658586
223	0x3a5563c0	0.0008140169
224	0x3b948f2e	0.00453367
225	0x3c611f24	0.013740335
226	0xbbb15176	-0.005411322
227	0xbc6a81d3	-0.014313179
228	0x3c2d1f7b	0.010566588
229	0x3cfee814	0.031116523
230	0x3c80ad29	0.01570757
231	0xbb4d69e6	-0.0031343638
232	0xbc4e83cb	-0.012604664
233	0xbb7a9689	-0.0038236699
234	0xbcceb536	-0.025232892
235	0xbb8156b0	-0.0039471015
236	0xbc105d50	-0.00881131
237	0x3b867d38	0.0041042827
238	0xbc486999	-0.012232208
239	0xbd6be02c	-0.057586834
240	0xbd8ce56b	-0.068796955
241	0x3c942f7b	0.018089047
242	0xbd89cd7a	-0.06728645
243	0xbdb6c82c	-0.089248985
244	0xbc7b3105	-0.015331511
245	0x3da8663a	0.08222623
246	0x3d48533c	0.048907503
247	0x3aff772b	0.0019490471
248	0x3d61c083	0.055115234
249	0x3d0f6640	0.035009623
250	0x3c50fe86	0.012755996
251	0x3c82bb8b	0.015958568
252	0x3db8441a	0.08997364
253	0x3dd0b952	0.10191597
254	0x3dc61819	0.09672565
255	0x3d22845e	0.039677016

fc.1.bias f4 [64]
0	0xbd82c470	-0.06385124
1	0xbbac7bf4	-0.0052638
2	0x3b2a8b86	0.0026023104
3	0xbd1bfd78	-0.038083524
4	0x3bb13d47	0.005408916
5	0x3a599fd9	0.0008301712
6	0xbd2e75be	-0.042592756
7	0xbc53b136	-0.012920668
8	0xbd7243b0	-0.059146583
9	0xbb5d6621	-0.0033782797
10	0xbc0a3c91	-0.008437292
11	0xbab66846	-0.0013916574
12	0xbcb0dccd	-0.021589661
13	0xbca6d2ac	-0.020364128
14	0xbc247d8e	-0.0100397
15	0xbd399c52	-0.045315094
16	0xbc27b3e7	-0.010235763
17	0x3bec4af5	0.007211084
18	0x3dd53263	0.10410001
19	0xbd275d54	-0.04086049
20	0xbc14662f	-0.009057566
21	0xbc747bdf	-0.014922111
22	0x3ba97086	0.0051708845
23	0x3bce4633	0.0062949895
24	0x3de0e4f6	0.10981171
25	0x3bd2dd20	0.0064350516
26	0xbd236839	-0.039894316
27	0xbd4156c7	-0.047201898
28	0xbc835ee2	-0.016036455
29	0xbd5b75b7	-0.05357906
30	0xbd1544ed	-0.036442686
31	0x3c217cce	0.009856416
32	0xbd2f49c7	-0.04279497
33	0x3d3cc5e5	0.046087164
34	0xbca1f516	-0.019770186
35	0xbd49e028	-0.049286038
36	0xbc47e7a9	-0.012201228
37	0xbd0642e8	-0.03277865
38	0xbb8b4907	-0.004250649
39	0xbd339b70	-0.04384941
40	0x3b9781cb	0.004623627
41	0xbd5df953	-0.054192852
42	0xbc8d63ff	-0.017259596
43	0xbd66b43e	-0.056324236
44	0xbd164738	-0.036689013
45	0xbc9a7463	-0.018854326
46	0x3bd860cc	0.006603336
47	0x3c1e4e3c	0.009662207
48	0xbd6eb292	-0.058275767
49	0xbc8b9883	-0.017040497
50	0xbd47395b	-0.048638683
51	0xbc111818	-0.008855842
52	0x3c0bee9d	0.008540777
53	0x3e046f1c	0.1293301
54	0xbd121f0c	-0.03567414
55	0xbd6646a1	-0.0562197
56	0xbd79a099	-0.060944173
57	0x3c00848e	0.0078441035
58	0xbd6560a1	-0.056000356
59	0x3dcf3c02	0.101188675
60	0xbca9f512	-0.020746741
61	0x3c0d8a3a	0.008638913
62	0xbd8f381f	-0.06993126
63	0xbcad7ab1	-0.021176668

fc.3.weight f4 [2, 64]
0	0xbd5557e2	-0.052085765
1	0x3dc8ec90	0.09810746
2	0x3d257bf2	0.040401407
3	0xbdfca068	-0.123352826
4	0x3d56bbfe	0.052425377
5	0x3d147fdb	0.036254745
6	0x3cdb6bba	0.026784766
7	0x3d7bb24b	0.06144933
8	0xbe10c00d	-0.14135762
9	0x3d1b9405	0.03798296
10	0x3d853d3b	0.065058194
11	0x3d9c62bd	0.0763602
12	0xbde134b6	-0.10996382
13	0x3daec784	0.08534148
14	0xbd737c82	-0.05944491
15	0xbe0bfccb	-0.13670652
16	0xbbbc0872	-0.0057383114
17	0x3cbc61af	0.022995798
18	0x3d7de83e	0.06198906
19	0xbdace25b	-0.084416114
20	0x3d48e9d5	0.049051125
21	0x3ce74516	0.028231185
22	0x3dd84db4	0.10561696
23	0x3c01acfc	0.007914778
24	0x3d89e065	0.06732253
25	0x3c27f803	0.010252002
26	0xbb95cbf4	-0.0045714322
27	0xbdfafdaa	-0.12255414
28	0x3d9631c6	0.07333712
29	0xbe252f1d	-0.16131254
30	0xbd574458	-0.052555412
31	0x3bfca845	0.007710489
32	0xbdbe03b6	-0.092780516
33	0x3c1c5255	0.009541114
34	0x3d54c8d3	0.051949333
35	0xbe249079	-0.16070737
36	0x3deec397	0.116583996
37	0xbe1edcf3	-0.15513973
38	0xbca058ad	-0.019573534
39	0xbdbc26bb	-0.09187075
40	0x3d81035c	0.06299469
41	0x3af40017	0.001861575
42	0x3dcecbce	0.100974664
43	0xbd970594	-0.07374111
44	0xbdda26d7	-0.10651939
45	0x3d9fc54b	0.078013025
46	0x3de114c9	0.109902926
47	0x3d990ee4	0.07473543
48	0xbcbe6608	-0.023242012
49	0x3cab2976	0.020893794
50	0xbe09796e	-0.13425228
51	0xbd8db180	-0.06918621
52	0x3dd7dcef	0.105401866
53	0x3e07da76	0.1326693
54	0x3cf83479	0.030298458
55	0xbd964a38	-0.07338375
56	0xbe237e9e	-0.1596627
57	0xbda4908b	-0.08035382
58	0xbe278655	-0.16359837
59	0x3e0962c5	0.13416584
60	0x3d773aa6	0.060358666
61	0x3dd84bdd	0.10561345
62	0xbdfe2dee	-0.12411104
63	0x3dab6725	0.08369283
64	0x3d8937e1	0.06700111
65	0xba8a90e5	-0.0010571746
66	0xbc76456c	-0.0150312
67	0x3de71b6a	0.11284526
68	0xbd563152	-0.05229313
69	0xbcefb95e	-0.029263195
70	0x3e1968e6	0.14981422
71	0x3966c47f	0.0002200771
72	0x3dad88bf	0.08473348
73	0x3d2dfa77	0.04247519
74	0xbd0e104a	-0.034683503
75	0xbd3eedb1	-0.0466134
76	0xbde185d6	-0.11011855
77	0xbd76a913	-0.060219835
78	0xbdb23d96	-0.08703153
79	0xbd082e11	-0.033247057
80	0xbdaef6a1	-0.085431345
81	0xbd16317b	-0.036668282
82	0xbe41e466	-0.18934783
83	0x3e1ee5fd	0.15517421
84	0xbdc5d13a	-0.096590474
85	0xbdacc696	-0.08436315
86	0xbd6d7408	-0.057971984
87	0xbde4a086	-0.1116343
88	0xbe2ee5d1	-0.17079856
89	0xbc0b5453	-0.008503991
90	0x3dd78008	0.10522467
91	0x3e1c7df6	0.15282425
92	0xbdac83a2	-0.084235445
93	0xbce691b0	-0.028145641
94	0x3dd1d744	0.10246137
95	0xbd94bef9	-0.07262988
96	0x3d24c382	0.040225513
97	0xbce96cd0	-0.028494269
98	0xbd6f39bd	-0.058404673
99	0x3d858c80	0.06520939
100	0x3df8289f	0.12117123
101	0x3d7eca3b	0.06220458
102	0xbd4572ce	-0.04820519
103	0x3cb12fab	0.021629175
104	0x3d116d2f	0.035504516
105	0x3da6cdfb	0.081447564
106	0xbdb30caa	-0.0874265
107	0x3d315159	0.04329047
108	0x3ce02176	0.027359705
109	0x3d5f469a	0.05451069
110	0xbd590f88	-0.052993327
111	0x3d530c0d	0.051525164
112	0x3e2bc716	0.16775164
113	0xbda9dcda	-0.08294077
114	0x3d36b941	0.044610266
115	0xbda5bc98	-0.08092612
116	0x3c3fa665	0.011697386
117	0xbe1cd98e	-0.15317366
118	0x3d273b78	0.0408282
119	0x3d66c9fb	0.056344967
120	0x3d967963	0.073473714
121	0xbdad702f	-0.08468663
122	0xbd277850	-0.040886223
123	0xbe5445b5	-0.20729716
124	0x3d2fe0ad	0.042938877
125	0xbd069031	-0.032852355
126	0xbbec23d2	-0.0072064186
127	0x3dc0d081	0.09414769

fc.3.bias f4 [2]
0	0x3d62940d	0.055316973
1	0xbdae1300	-0.08499718
